EOGP_beta_1/operators/cst_param.npy (npy, 168128 bytes, 1 tensors)

array f8 [1500, 14]
0.150535406348962 0.15792325706017368 0.1539894197249308 0.19387316116407333 0.18216199225884402 0.2375623151145843 0.2861987813941782 -0.09337283432185148
-0.06696757986238248 -0.061891288449038497 -0.07503583966050056 -0.01676762077447805 -0.08387624518852992 0.05269752506262795 0.1490006520081101 0.2437902543989283
0.155770483493774 0.2737157731153919 0.17964035669995293 0.2534901308691686 0.20090422351608528 -0.10766527113432256 -0.0472206651674865 -0.10094675485590592
0.024599387827833177 0.0051833515185017946 0.08814232952111264 0.09878169798963911 0.1400705369249891 0.33554315973269 0.1698212950032067 0.384368845274132
0.3304038474518575 0.2452895000847684 0.2556608111957777 -0.12022939843024638 -0.06465709376038911 -0.18170510583159727 0.04117773911595316 -0.3665200175298046
0.058501206442819614 0.06492695663074441 0.1340939775455419 0.3148594303762548 0.24966111164102553 0.23888615809724956 0.5027625464774104 0.30159272234829176
0.22263825444296792 -0.10837725827068789 -0.06315050527882167 -0.14681226028776279 -0.055728553791732284 -0.093660162576619 -0.29757897657813126 0.1
0.20933828348706496 0.35484089952271985 0.1678216611242839 0.502832628073975 0.21767929796261326 0.24271688253345503 0.15225018521272793 -0.0912880128531856
-0.04742432111562721 -0.16491188761181097 0.05 -0.247961365969242 -0.10658659415566259 0.09999997647593767 0.1683407720716952 0.35089633385299435
0.19083631124298053 0.4275830131362116 0.36279350203626215 0.25265483145774253 0.19245008161493776 -0.10242342669663898 -0.06609125701037874 -0.1894183622690942
0.049999967416977764 -0.3063470405279387 -0.09136865313981529 0.09999997809751668 0.1795045838151133 0.2652027312303467 0.127323604069726 0.30971717048196873
0.2880145128856178 2.712610956243644e-06 0.27798508737525773 -0.11681308884914862 -0.18422694446058088 -0.12057121230273905 -0.23794582632971076 -0.21492789605695736
0.02623811334762436 -0.017413005418514958 0.11568824571511643 0.21125157237714923 0.13628566471546452 0.2483980256739344 0.07691301717164013 0.14749556930173366
0.0477379010268647 -0.10267507514596354 -0.009464695562121898 -0.12832406433085644 0.034026091581519674 -0.14900063314277356 -0.040833499388270175 -0.1362129311579533
0.2004552633454244 0.30926545668336086 0.1651342435258982 0.3737407407451805 0.1581286282182662 0.2993107302875332 0.20545408161640125 -0.1190439233295355
-0.0992893460157928 -0.03859476905694288 -0.13211463733989257 -0.03495846678739888 -0.08914223207312379 -0.0710865458881407 0.15670811432629309 0.3283433073597792
0.04609687990741115 0.4653105255411636 0.09474489544592561 0.36530615759372526 0.31609268930995943 -0.11638494045568776 -0.08028637404629922 -0.05045357911853931
-0.08590751862520293 -0.008904719978811303 -0.07281739898718546 -0.02635966934944768 0.17446822894132344 0.3101824353250939 0.12746891262226948 0.34489033826305154
0.18366054128796377 0.2764703534374367 0.2699112071777502 -0.13436072104851401 -0.07765426791002228 -0.05148148600612474 0.029018741698524936 -0.08107686806868784
-0.05041927975701319 -0.056865302053762265 0.14501369687726134 0.35493521566373293 0.029965692565645876 0.4712207571040917 0.07307099529861799 0.32519629189263666
0.23378062374496705 -0.13993070462077722 -0.08720108470848115 -0.03338716924545914 -0.09745488030293488 -0.0038844432555923143 -0.07302960340925967 -0.026540800144423417
0.16235309789638563 0.34560621720689744 0.07883223335601021 0.41198177262078006 0.12630905208995863 0.3001011407490054 0.2337144471155732 -0.15867826491640047
-0.01612627305828929 -0.14646189224406428 0.0499996117361114 -0.12887118674236298 0.008988328986251216 -0.06792312409168252 0.16045133926087624 0.342140389578258
0.03226846189313779 0.3808213610748118 0.11685269784842534 0.10125036746151504 0.0520292411656505 -0.12842620834247473 -0.09909239725559647 -0.03267022887666032
-0.19336282139467864 0.06375033301175179 -0.33904549834566783 -0.16001369443193422 0.19585736338282228 0.27875835410578637 0.20884707028982052 0.26008679388228506
0.25795195358823736 0.23462040579444773 0.26437066352410366 -0.13551055046679644 -0.04340577563689683 -0.0973409672221301 0.0061598300290859045 -0.094187187379737
-0.0031743164715031923 -0.06313670371272787 0.19813811340926896 0.3485280607607474 0.09614601989674043 0.4469201652334319 0.11248903499847444 0.3283075484580167
0.2490243336293052 -0.14355086854653715 -0.008650878328788993 -0.07164949915868803 -0.029580977254261155 -0.02532609600371148 -0.04058033083237876 -0.020982539360021
0.21353651232212667 0.4201135523042839 0.05961460427593997 0.5394617296015006 0.0958879899575328 0.38366704492891723 0.25929137345056663 -0.16221316407825626
-0.14091072652436754 -0.0387335278545468 -0.16030680295751262 -0.027033798995239174 -0.10793397937127559 -0.0786466734152961 0.13533313835535973 0.3598537301406294
0.06041200018579221 0.43462133126136326 0.09555999873575781 0.33759604754626554 0.23524794080749387 -0.08655667038689259 -0.1324352523806531 0.04276461157780126
-0.12903755764841204 0.057071767811337486 -0.08207310632873442 0.006344465638317445 0.2342972749106244 0.37684479710051566 0.15344943946785305 0.46024295127447157
00000000: 9c55 9483 be44 c33f aaf5 2c4c d436 c43f
00000010: 2a05 d3e0 ecb5 c33f 66cb 62f3 d5d0 c83f
00000020: 69b8 a98b 1551 c73f 92ef 1623 7168 ce3f
00000030: 1c8e 8fb1 1451 d23f 1647 bf35 48e7 b7bf
00000040: 1bb5 668d c924 b1bf 3583 9707 37b0 afbf
00000050: eaa7 5e7d 8c35 b3bf 49b5 6efb 872b 91bf
00000060: bbfa fee1 e978 b5bf d4c0 7285 2bfb aa3f
00000070: ad8f ba0f 7412 c33f 9f0b dde0 8434 cf3f
00000080: d5d8 2486 49f0 c33f 8984 7b29 8f84 d13f
00000090: 98b6 8888 74fe c63f 1847 7cab 2e39 d03f
000000a0: 449f d0c6 3ab7 c93f e8d7 6f82 f38f bbbf
000000b0: e5ef 2d99 4e2d a8bf 6b52 be82 a5d7 b9bf
000000c0: f47e e3f8 9430 993f fa16 1754 233b 753f
000000d0: 26ba afe6 7e90 b63f b910 4fe2 c149 b93f
000000e0: 32ed 9cd3 d4ed c13f b6b2 5c04 8a79 d53f
000000f0: 8600 1a46 b4bc c53f 836f 03c9 7f99 d83f
00000100: afcf d12d 5625 d53f 5248 7576 a565 cf3f
00000110: bd19 bd29 bf5c d03f c891 4696 5ac7 bebf
00000120: 3ac0 2707 5e8d b0bf 100e 88e7 1c42 c7bf
00000130: c508 a7a5 3f15 a53f bfab 2760 1075 d7bf
00000140: dc9b e5c0 def3 ad3f 8e9c 5b93 0d9f b03f
00000150: 5107 13d0 fd29 c13f af67 132b a826 d43f
00000160: 1365 ca32 e5f4 cf3f b454 3f56 d293 ce3f
00000170: e6c5 d87a a116 e03f 31a4 cc8f 4b4d d33f
00000180: c0e5 d50a 697f cc3f a01a e7ab 9cbe bbbf
00000190: 7dfe e5aa a12a b0bf 663c 4b80 beca c2bf
000001a0: c54c faf7 7388 acbf 1662 34c7 1cfa b7bf
000001b0: 9655 18b1 880b d3bf 9a99 9999 9999 b93f
000001c0: 2859 b0cc 98cb ca3f 73ee ae9a b6b5 d63f
000001d0: b56a 0b21 2e7b c53f 0210 9e73 3417 e03f
000001e0: 4201 e24c eadc cb3f a489 55c8 5811 cf3f
000001f0: d438 261f ef7c c33f 7ba4 b8b5 a65e b7bf
00000200: ae07 7428 0048 a8bf 68d6 012e d51b c5bf
00000210: 9a99 9999 9999 a93f 6c33 c1b2 32bd cfbf
00000220: 4531 1750 4249 bbbf b49e 9034 9999 b93f
00000230: 21cf 50bf 308c c53f 8ad5 8be5 1575 d63f
00000240: b9c4 d601 536d c83f d2b0 6f24 855d db3f
00000250: 8e9c 9c3c 0238 d73f b364 922b 7f2b d03f
00000260: 3a08 534b 34a2 c83f 0a9e 01f4 6b38 babf
00000270: 563e 694b 5beb b0bf f293 9a63 dc3e c8bf
00000280: c0c6 b681 9899 a93f fcce 129e 309b d3bf
00000290: 8475 1da1 ef63 b7bf 9e90 873b 9999 b93f
000002a0: 82e7 7b96 01fa c63f 0d6e 5ce0 14f9 d03f
000002b0: 7581 becd 234c c03f 9bb3 8ef7 67d2 d33f
000002c0: 8d7e 676c d46e d23f 85eb dda4 49c1 c63e
000002d0: 165b c3f6 81ca d13f e611 5a6c 76e7 bdbf
000002e0: a906 c09e bf94 c7bf 09e9 ad45 c1dd bebf
000002f0: 9124 2743 0275 cebf 2f07 48de c182 cbbf
00000300: 7a78 f2fa 29de 9a3f 19bc 3003 b7d4 91bf
00000310: 0cc7 e0af be9d bd3f c551 4ba1 4a0a cb3f
00000320: d3ea 6e04 cf71 c13f cf8b 54aa 81cb cf3f
00000330: b18d 634d 92b0 b33f 3759 3a83 22e1 c23f
00000340: af50 6127 1a71 a83f f1c2 dde9 e948 babf
00000350: af4d 3fef 3962 83bf 45a0 cb45 ec6c c0bf
00000360: cc4d 1b2d de6b a13f 983b 37e7 7312 c3bf
00000370: de5f e8e0 20e8 a4bf 8ccf 4ee2 6c6f c1bf
00000380: e098 30a0 84a8 c93f d933 8f57 01cb d33f
00000390: ff5b b26f 1e23 c53f 40bc ab48 5eeb d73f
000003a0: 3b20 6113 8f3d c43f 3651 7b31 e827 d33f
000003b0: e1a2 afc0 514c ca3f 20e6 7c9d a979 bebf
000003c0: 8ba3 facd 066b b9bf 4ae0 ca8d b1c2 a3bf
000003d0: 834f 59e7 21e9 c0bf afee 237f 13e6 a1bf
000003e0: 694e 727b 06d2 b6bf 6271 c655 ba32 b2bf
000003f0: 154e 06f1 020f c43f 6720 bea5 9303 d53f
00000400: ebc8 4c9f 029a a73f 88c4 6bcc a5c7 dd3f
00000410: 7337 6793 3341 b83f 431e f913 2d61 d73f
00000420: 5dd2 c5d4 dc3a d43f cc0b 0149 67cb bdbf
00000430: 17e1 d7d6 a58d b4bf 2f80 8f30 0dd5 a9bf
00000440: 3ecb f9fe 08fe b5bf 9956 b648 a33c 82bf
00000450: 93d0 3a3b 29a4 b2bf 8431 2877 07fe 9abf
00000460: 353c bf94 f954 c63f 57f4 e06d 07da d33f
00000470: f912 7cbd e650 c03f adf4 e2ec ae12 d63f
00000480: 0ae0 3249 3082 c73f 55f3 94b5 b0b1 d13f
00000490: 92bf e9a7 3946 d13f b79a 626b bb32 c1bf
000004a0: 9080 116d 26e1 b3bf d9d7 7d05 c85b aabf
000004b0: 65d3 43ca 16b7 9d3f d72e d120 74c1 b4bf
000004c0: adda 494b 8ed0 a9bf 4e36 32e9 721d adbf
000004d0: a2aa c70e cf8f c23f 395d de31 42b7 d63f
000004e0: 6727 4996 53af 9e3f fa56 3d1b 7b28 de3f
000004f0: f4fe 17df c7b4 b23f e665 9d1b 04d0 d43f
00000500: 9e28 b602 86ec cd3f 7ab7 06d4 3fe9 c1bf
00000510: aca7 ff6e cf52 b6bf afd0 0780 1f18 a1bf
00000520: 5d98 bc93 cdf2 b8bf c4b6 de97 44d2 6fbf
00000530: cf59 486e 11b2 b2bf 0717 85f2 822d 9bbf
00000540: 0044 ef7e fcc7 c43f 58aa 0c8a 691e d63f
00000550: f97b 2268 592e b43f 3614 fdcb e85d da3f
00000560: 1223 f51f e52a c03f e697 406a db34 d33f
00000570: e867 7be1 5aea cd3f 9073 33c3 914f c4bf
00000580: a11e 91dd 6783 90bf 4d36 a666 43bf c2bf
00000590: 9947 7092 8c99 a93f 9c42 3ade d97e c0bf
000005a0: 3446 5518 7968 823f 56ad 9dec 6863 b1bf
000005b0: 5ac8 5c63 ab89 c43f bc46 f8cd a0e5 d53f
000005c0: 4de7 0be9 7d85 a03f 3ecf db8e 605f d83f
000005d0: d856 b5f3 0eea bd3f 4f87 f448 8beb b93f
000005e0: 28fd 7ba2 93a3 aa3f f7dd 631e 4570 c0bf
000005f0: 17ba 7e8d 1e5e b9bf 88fb 27f9 26ba a0bf
00000600: f482 13e9 1cc0 c8bf 6603 651b f151 b03f
00000610: e70a d0e3 ebb2 d5bf 5ba7 3f28 547b c4bf
00000620: 327b 34a5 da11 c93f c1c0 9747 2dd7 d13f
00000630: fc4d 6134 80bb ca3f 5823 7614 43a5 d03f
00000640: 5573 26e9 4882 d03f 6b42 ee9c 0a08 ce3f
00000650: f0e6 76ee 72eb d03f da48 42e3 6858 c1bf
00000660: fdce a225 4839 a6bf cdb1 c76e 56eb b8bf
00000670: dfa8 61c8 0c3b 793f aa89 7fc9 a61c b8bf
00000680: 9c13 d52d 0601 6abf aa97 9f1d ba29 b0bf
00000690: a68b 97f6 965c c93f 5e2a ada3 484e d63f
000006a0: 48d9 188b 069d b83f b26e 6609 579a dc3f
000006b0: c31f 7ad6 14cc bc3f 340e eaa9 fd02 d53f
000006c0: a84b 6c84 07e0 cf3f 7e21 dcf6 df5f c2bf
000006d0: ced4 073c 8db7 81bf e14d a91f 9f57 b2bf
000006e0: 6a26 90c7 794a 9ebf 1b02 4988 15ef 99bf
000006f0: 0e65 92f3 f1c6 a4bf 5671 5a61 727c 95bf
00000700: a874 7618 2a55 cb3f d135 f0f3 23e3 da3f
00000710: 5a52 752f ce85 ae3f 13a0 c23e 4543 e13f
00000720: 2960 f284 1d8c b83f 4c73 a138 008e d83f
00000730: 10ba 46d8 3a98 d03f 8030 59a5 66c3 c4bf
00000740: fcf3 09d9 5c09 c2bf 36b8 c986 e1d4 a3bf
00000750: cbb0 03ee ee84 c4bf 02e6 488a bfae 9bbf
00000760: 39da 86af 8fa1 bbbf 0a05 423a 3022 b4bf
00000770: 6f91 a6a5 9852 c13f 160c 93f0 d707 d73f
00000780: 04f8 2a5a 52ee ae3f a256 fafc d5d0 db3f
00000790: bf39 60bd 9e76 b83f a715 de73 2c9b d53f
000007a0: 8f19 1cc2 9a1c ce3f 85f6 8ff4 9328 b6bf
000007b0: 17fd e76a a3f3 c0bf b83b 4e40 3ee5 a53f
000007c0: 5b1f 077d 4d84 c0bf 5f98 8cc0 8238 ad3f
000007d0: b723 903b be02 b5bf 5daf d586 a7fc 793f
000007e0: 163b a4fe 73fd cd3f e2b9 cda3 391e d83f
000007f0: 944e 0d32 3ba4 c33f 5e0e fcd9 9e74 dd3f
